…
1563/1563 [==============================] - 20s 13ms/step - loss: 0.7093 - accuracy: 0.7556
Epoch 19/20
1563/1563 [==============================] - 21s 13ms/step - loss: 0.6835 - accuracy: 0.7632
Epoch 20/20
1563/1563 [==============================] - 19s 12ms/step - loss: 0.6591 - accuracy: 0.7733
Validation loss: 1.104904294013977
Validation accuracy: 0.6297000050544739
Time Elapsed: 398.18584966659546
Model: "sequential_28"
_________________________________________________________________
 Layer (type)                Output Shape              Param #   
=================================================================
 conv2d_50 (Conv2D)          (None, 30, 30, 64)        1792      
                                                                 
 max_pooling2d_41 (MaxPoolin  (None, 15, 15, 64)       0         
 g2D)                                                            
                                                                 
 flatten_22 (Flatten)        (None, 14400)             0         
                                                                 
 dense_44 (Dense)            (None, 128)               1843328   
                                                                 
 dense_45 (Dense)            (None, 64)                8256      
                                                                 
 dense_46 (Dense)            (None, 32)                2080      
                                                                 
 dense_47 (Dense)            (None, 10)                330       
                                                                 
=================================================================
Total params: 1,855,786
Trainable params: 1,855,786
Non-trainable params: 0
_________________________________________________________________
