…
704/704 [==============================] - 135s 192ms/step - loss: 1.0189 - categorical_accuracy: 0.7219 - val_loss: 5.3268 - val_categorical_accuracy: 0.2170
313/313 [==============================] - 6s 19ms/step - loss: 3.5761 - categorical_accuracy: 0.2362
Model: "model_4"
_________________________________________________________________
 Layer (type)                Output Shape              Param #   
=================================================================
 input_8 (InputLayer)        [(None, 64, 64, 3)]       0         
                                                                 
 lambda_7 (Lambda)           (None, 224, 224, 3)       0         
                                                                 
 block1_conv1 (Conv2D)       (None, 224, 224, 64)      1792      
                                                                 
 block1_conv2 (Conv2D)       (None, 224, 224, 64)      36928     
                                                                 
 block1_pool (MaxPooling2D)  (None, 112, 112, 64)      0         
                                                                 
 block2_conv1 (Conv2D)       (None, 112, 112, 128)     73856     
                                                                 
 block2_conv2 (Conv2D)       (None, 112, 112, 128)     147584    
                                                                 
 block2_pool (MaxPooling2D)  (None, 56, 56, 128)       0         
                                                                 
 block3_conv1 (Conv2D)       (None, 56, 56, 256)       295168    
                                                                 
 block3_conv2 (Conv2D)       (None, 56, 56, 256)       590080    
                                                                 
 block3_conv3 (Conv2D)       (None, 56, 56, 256)       590080    
                                                                 
 block3_pool (MaxPooling2D)  (None, 28, 28, 256)       0         
                                                                 
 block4_conv1 (Conv2D)       (None, 28, 28, 512)       1180160   
                                                                 
 block4_conv2 (Conv2D)       (None, 28, 28, 512)       2359808   
                                                                 
 block4_conv3 (Conv2D)       (None, 28, 28, 512)       2359808   
                                                                 
 block4_pool (MaxPooling2D)  (None, 14, 14, 512)       0         
                                                                 
 block5_conv1 (Conv2D)       (None, 14, 14, 512)       2359808   
                                                                 
 block5_conv2 (Conv2D)       (None, 14, 14, 512)       2359808   
                                                                 
 block5_conv3 (Conv2D)       (None, 14, 14, 512)       2359808   
                                                                 
 block5_pool (MaxPooling2D)  (None, 7, 7, 512)         0         
                                                                 
 flatten_5 (Flatten)         (None, 25088)             0         
                                                                 
 dense_15 (Dense)            (None, 128)               3211392   
                                                                 
 dense_16 (Dense)            (None, 128)               16512     
                                                                 
 dense_17 (Dense)            (None, 200)               25800     
                                                                 
=================================================================
Total params: 17968392 (68.54 MB)
Trainable params: 17968392 (68.54 MB)
Non-trainable params: 0 (0.00 Byte)
_________________________________________________________________
Test loss: 3.57608699798584
Test accuracy: 0.2362000048160553
Average inference time per image: 0.6605 (ms)
…
