…
1563/1563 [==============================] - 90s 57ms/step - loss: 0.3550 - accuracy: 0.8781
Epoch 19/20
1563/1563 [==============================] - 90s 57ms/step - loss: 0.3237 - accuracy: 0.8887
Epoch 20/20
1563/1563 [==============================] - 88s 56ms/step - loss: 0.2924 - accuracy: 0.8996
Validation loss: 0.7914385795593262
Validation accuracy: 0.7608000040054321
Time Elapsed: 1985.1084558963776
Model: "sequential_2"
_________________________________________________________________
 Layer (type)                Output Shape              Param #   
=================================================================
 conv2d_12 (Conv2D)          (None, 30, 30, 32)        896       
                                                                 
 conv2d_13 (Conv2D)          (None, 30, 30, 32)        9248      
                                                                 
 max_pooling2d_6 (MaxPooling  (None, 15, 15, 32)       0         
 2D)                                                             
                                                                 
 conv2d_14 (Conv2D)          (None, 15, 15, 64)        18496     
                                                                 
 conv2d_15 (Conv2D)          (None, 15, 15, 64)        36928     
                                                                 
 max_pooling2d_7 (MaxPooling  (None, 7, 7, 64)         0         
 2D)                                                             
                                                                 
 conv2d_16 (Conv2D)          (None, 7, 7, 128)         73856     
                                                                 
 conv2d_17 (Conv2D)          (None, 7, 7, 128)         147584    
                                                                 
 max_pooling2d_8 (MaxPooling  (None, 3, 3, 128)        0         
 2D)                                                             
                                                                 
 flatten_2 (Flatten)         (None, 1152)              0         
                                                                 
 dense_4 (Dense)             (None, 256)               295168    
                                                                 
 dense_5 (Dense)             (None, 10)                2570      
                                                                 
=================================================================
Total params: 584,746
Trainable params: 584,746
Non-trainable params: 0
_________________________________________________________________
