…
[[[[0.        ]
   [0.        ]
   [0.11210141]]

  [[0.22892433]
   [0.06669015]
   [0.        ]]

  [[0.28595904]
   [0.02371773]
   [0.        ]]]]
1/1 [==============================] - 0s 37ms/step
Input size: (100, 100, 3)
Output size: (50, 50, 32)
Image shape: (28, 28, 1)
Total number of training samples: 60000
Total number of validation samples: 10000
Model: "sequential_6"
_________________________________________________________________
 Layer (type)                Output Shape              Param #   
=================================================================
 conv2d_5 (Conv2D)           (None, 28, 28, 16)        160       
                                                                 
 activation_2 (Activation)   (None, 28, 28, 16)        0         
                                                                 
 max_pooling2d_1 (MaxPooling  (None, 14, 14, 16)       0         
 2D)                                                             
                                                                 
 conv2d_6 (Conv2D)           (None, 14, 14, 16)        2320      
                                                                 
 activation_3 (Activation)   (None, 14, 14, 16)        0         
                                                                 
 max_pooling2d_2 (MaxPooling  (None, 7, 7, 16)         0         
 2D)                                                             
                                                                 
 flatten (Flatten)           (None, 784)               0         
                                                                 
 dense (Dense)               (None, 10)                7850      
                                                                 
 activation_4 (Activation)   (None, 10)                0         
                                                                 
=================================================================
Total params: 10,330
Trainable params: 10,330
Non-trainable params: 0
_________________________________________________________________
/Users/hasnatchowdhury/opt/anaconda3/envs/machineLearning/lib/python3.10/site-packages/keras/optimizers/legacy/rmsprop.py:143: UserWarning: The `lr` argument is deprecated, use `learning_rate` instead.
…
1563/1563 [==============================] - 23s 15ms/step - loss: 1.0474 - accuracy: 0.6364
...
Epoch 20/20
1563/1563 [==============================] - 21s 13ms/step - loss: 0.8440 - accuracy: 0.7089
Validation loss: 0.9748977422714233
Validation accuracy: 0.6610000133514404
Output is truncated. View as a scrollable element or open in a text editor. Adjust cell output settings...
Model: "sequential_7"
_________________________________________________________________
 Layer (type)                Output Shape              Param #   
=================================================================
 conv2d_7 (Conv2D)           (None, 30, 30, 32)        896       
                                                                 
 max_pooling2d_3 (MaxPooling  (None, 15, 15, 32)       0         
 2D)                                                             
                                                                 
 conv2d_8 (Conv2D)           (None, 13, 13, 64)        18496     
                                                                 
 max_pooling2d_4 (MaxPooling  (None, 6, 6, 64)         0         
 2D)                                                             
                                                                 
 conv2d_9 (Conv2D)           (None, 4, 4, 128)         73856     
                                                                 
 max_pooling2d_5 (MaxPooling  (None, 2, 2, 128)        0         
 2D)                                                             
                                                                 
 flatten_1 (Flatten)         (None, 512)               0         
                                                                 
 dense_1 (Dense)             (None, 128)               65664     
                                                                 
 dense_2 (Dense)             (None, 10)                1290      
                                                                 
=================================================================
Total params: 160,202
Trainable params: 160,202
Non-trainable params: 0
