…
model.add(MaxPooling2D((2, 2)))
model.add(Conv2D(128, (3, 3), activation='relu'))
model.add(MaxPooling2D((2, 2)))

# Flatten Layer
model.add(Flatten())

# Fully Connected Layers
model.add(Dense(128, activation='relu'))
model.add(Dense(64, activation='relu'))

# Output Layer
model.add(Dense(1, activation='linear'))  # Assuming house price prediction, use linear activa


------
Model: "sequential_6"
_________________________________________________________________
 Layer (type)                Output Shape              Param #   
=================================================================
 conv2d_20 (Conv2D)          (None, 62, 62, 32)        896       
                                                                 
 max_pooling2d_13 (MaxPoolin  (None, 31, 31, 32)       0         
 g2D)                                                            
                                                                 
 conv2d_21 (Conv2D)          (None, 29, 29, 64)        18496     
                                                                 
 max_pooling2d_14 (MaxPoolin  (None, 14, 14, 64)       0         
 g2D)                                                            
                                                                 
 conv2d_22 (Conv2D)          (None, 12, 12, 128)       73856     
                                                                 
 max_pooling2d_15 (MaxPoolin  (None, 6, 6, 128)        0         
 g2D)                                                            
                                                                 
 flatten_3 (Flatten)         (None, 4608)              0         
                                                                 
 dense_7 (Dense)             (None, 128)               589952    
                                                                 
 dense_8 (Dense)             (None, 64)                8256      
                                                                 
 dense_9 (Dense)             (None, 1)                 65        
                                                                 
=================================================================
Total params: 691,521
Trainable params: 691,521
Non-trainable params: 0
_________________________________________________________________
[INFO] training model...
/Users/hasnatchowdhury/opt/anaconda3/envs/machineLearning/lib/python3.10/site-packages/keras/optimizers/legacy/adam.py:117: UserWarning: The `lr` argument is deprecated, use `learning_rate` instead.
…
