Model: "sequential_8"
_________________________________________________________________
 Layer (type)                Output Shape              Param #   
=================================================================
 conv2d_26 (Conv2D)          (None, 62, 62, 32)        896       
                                                                 
 max_pooling2d_19 (MaxPoolin  (None, 31, 31, 32)       0         
 g2D)                                                            
                                                                 
 conv2d_27 (Conv2D)          (None, 29, 29, 64)        18496     
                                                                 
 max_pooling2d_20 (MaxPoolin  (None, 14, 14, 64)       0         
 g2D)                                                            
                                                                 
 conv2d_28 (Conv2D)          (None, 12, 12, 128)       73856     
                                                                 
 max_pooling2d_21 (MaxPoolin  (None, 6, 6, 128)        0         
 g2D)                                                            
                                                                 
 flatten_5 (Flatten)         (None, 4608)              0         
                                                                 
 dense_13 (Dense)            (None, 128)               589952    
                                                                 
 dense_14 (Dense)            (None, 64)                8256      
                                                                 
 dense_15 (Dense)            (None, 1)                 65        
                                                                 
=================================================================
Total params: 691,521
Trainable params: 691,521
Non-trainable params: 0
_________________________________________________________________
[INFO] training model...
Epoch 1/100
14/14 [==============================] - 1s 68ms/step - loss: 109.9158 - mean_absolute_percentage_error: 109.9158 - val_loss: 62.3448 - val_mean_absolute_percentage_error: 62.3448
…
