Model: "sequential_7"
_________________________________________________________________
 Layer (type)                Output Shape              Param #   
=================================================================
 conv2d_23 (Conv2D)          (None, 62, 62, 32)        896       
                                                                 
 max_pooling2d_16 (MaxPoolin  (None, 31, 31, 32)       0         
 g2D)                                                            
                                                                 
 conv2d_24 (Conv2D)          (None, 29, 29, 64)        18496     
                                                                 
 max_pooling2d_17 (MaxPoolin  (None, 14, 14, 64)       0         
 g2D)                                                            
                                                                 
 conv2d_25 (Conv2D)          (None, 12, 12, 128)       73856     
                                                                 
 max_pooling2d_18 (MaxPoolin  (None, 6, 6, 128)        0         
 g2D)                                                            
                                                                 
 flatten_4 (Flatten)         (None, 4608)              0         
                                                                 
 dense_10 (Dense)            (None, 128)               589952    
                                                                 
 dense_11 (Dense)            (None, 64)                8256      
                                                                 
 dense_12 (Dense)            (None, 1)                 65        
                                                                 
=================================================================
Total params: 691,521
Trainable params: 691,521
Non-trainable params: 0
_________________________________________________________________
[INFO] training model...
/Users/hasnatchowdhury/opt/anaconda3/envs/machineLearning/lib/python3.10/site-packages/keras/optimizers/legacy/adam.py:117: UserWarning: The `lr` argument is deprecated, use `learning_rate` instead.
…
