…
1563/1563 [==============================] - 27s 17ms/step - loss: 0.7855 - accuracy: 0.7304
Epoch 19/20
1563/1563 [==============================] - 28s 18ms/step - loss: 0.7673 - accuracy: 0.7361
Epoch 20/20
1563/1563 [==============================] - 28s 18ms/step - loss: 0.7506 - accuracy: 0.7418
Validation loss: 0.9159343838691711
Validation accuracy: 0.6886000037193298
Time Elapsed: 562.1613910198212
Model: "sequential_29"
_________________________________________________________________
 Layer (type)                Output Shape              Param #   
=================================================================
 conv2d_51 (Conv2D)          (None, 30, 30, 64)        1792      
                                                                 
 max_pooling2d_42 (MaxPoolin  (None, 15, 15, 64)       0         
 g2D)                                                            
                                                                 
 conv2d_52 (Conv2D)          (None, 13, 13, 64)        36928     
                                                                 
 max_pooling2d_43 (MaxPoolin  (None, 6, 6, 64)         0         
 g2D)                                                            
                                                                 
 flatten_23 (Flatten)        (None, 2304)              0         
                                                                 
 dense_48 (Dense)            (None, 128)               295040    
                                                                 
 dense_49 (Dense)            (None, 10)                1290      
                                                                 
=================================================================
Total params: 335,050
Trainable params: 335,050
Non-trainable params: 0
_________________________________________________________________
