…
1563/1563 [==============================] - 47s 30ms/step - loss: 0.6458 - accuracy: 0.7787
Epoch 19/20
1563/1563 [==============================] - 38s 24ms/step - loss: 0.6209 - accuracy: 0.7880
Epoch 20/20
1563/1563 [==============================] - 31s 20ms/step - loss: 0.5969 - accuracy: 0.7961
Validation loss: 0.9547209143638611
Validation accuracy: 0.6879000067710876
Time Elapsed: 726.964448928833
Model: "sequential_34"
_________________________________________________________________
 Layer (type)                Output Shape              Param #   
=================================================================
 conv2d_61 (Conv2D)          (None, 28, 28, 64)        4864      
                                                                 
 max_pooling2d_52 (MaxPoolin  (None, 14, 14, 64)       0         
 g2D)                                                            
                                                                 
 conv2d_62 (Conv2D)          (None, 12, 12, 64)        36928     
                                                                 
 max_pooling2d_53 (MaxPoolin  (None, 6, 6, 64)         0         
 g2D)                                                            
                                                                 
 flatten_28 (Flatten)        (None, 2304)              0         
                                                                 
 dense_58 (Dense)            (None, 256)               590080    
                                                                 
 dense_59 (Dense)            (None, 10)                2570      
                                                                 
=================================================================
Total params: 634,442
Trainable params: 634,442
Non-trainable params: 0
_________________________________________________________________
