…
1563/1563 [==============================] - 23s 15ms/step - loss: 0.9135 - accuracy: 0.6835
Epoch 19/20
1563/1563 [==============================] - 22s 14ms/step - loss: 0.8964 - accuracy: 0.6907
Epoch 20/20
1563/1563 [==============================] - 26s 16ms/step - loss: 0.8792 - accuracy: 0.6964
Validation loss: 1.1621917486190796
Validation accuracy: 0.6057000160217285
Time Elapsed: 451.7830128669739
Model: "sequential_31"
_________________________________________________________________
 Layer (type)                Output Shape              Param #   
=================================================================
 conv2d_55 (Conv2D)          (None, 28, 28, 64)        4864      
                                                                 
 max_pooling2d_46 (MaxPoolin  (None, 9, 9, 64)         0         
 g2D)                                                            
                                                                 
 conv2d_56 (Conv2D)          (None, 5, 5, 64)          102464    
                                                                 
 max_pooling2d_47 (MaxPoolin  (None, 2, 2, 64)         0         
 g2D)                                                            
                                                                 
 flatten_25 (Flatten)        (None, 256)               0         
                                                                 
 dense_52 (Dense)            (None, 256)               65792     
                                                                 
 dense_53 (Dense)            (None, 10)                2570      
                                                                 
=================================================================
Total params: 175,690
Trainable params: 175,690
Non-trainable params: 0
_________________________________________________________________
