…
1563/1563 [==============================] - 39s 25ms/step - loss: 0.8162 - accuracy: 0.7186
Epoch 19/20
1563/1563 [==============================] - 45s 29ms/step - loss: 0.7974 - accuracy: 0.7260
Epoch 20/20
1563/1563 [==============================] - 40s 26ms/step - loss: 0.7783 - accuracy: 0.7349
Validation loss: 0.9319041967391968
Validation accuracy: 0.6868000030517578
Time Elapsed: 824.2079739570618
Model: "sequential_32"
_________________________________________________________________
 Layer (type)                Output Shape              Param #   
=================================================================
 conv2d_57 (Conv2D)          (None, 28, 28, 64)        4864      
                                                                 
 max_pooling2d_48 (MaxPoolin  (None, 14, 14, 64)       0         
 g2D)                                                            
                                                                 
 conv2d_58 (Conv2D)          (None, 10, 10, 64)        102464    
                                                                 
 max_pooling2d_49 (MaxPoolin  (None, 3, 3, 64)         0         
 g2D)                                                            
                                                                 
 flatten_26 (Flatten)        (None, 576)               0         
                                                                 
 dense_54 (Dense)            (None, 256)               147712    
                                                                 
 dense_55 (Dense)            (None, 10)                2570      
                                                                 
=================================================================
Total params: 257,610
Trainable params: 257,610
Non-trainable params: 0
_________________________________________________________________
