…
1563/1563 [==============================] - 23s 15ms/step - loss: 1.0353 - accuracy: 0.6422
Epoch 19/20
1563/1563 [==============================] - 22s 14ms/step - loss: 1.0191 - accuracy: 0.6466
Epoch 20/20
1563/1563 [==============================] - 22s 14ms/step - loss: 1.0030 - accuracy: 0.6526
Validation loss: 1.106707215309143
Validation accuracy: 0.6150000095367432
Time Elapsed: 436.6393892765045
Model: "sequential_30"
_________________________________________________________________
 Layer (type)                Output Shape              Param #   
=================================================================
 conv2d_53 (Conv2D)          (None, 28, 28, 64)        4864      
                                                                 
 max_pooling2d_44 (MaxPoolin  (None, 9, 9, 64)         0         
 g2D)                                                            
                                                                 
 conv2d_54 (Conv2D)          (None, 5, 5, 64)          102464    
                                                                 
 max_pooling2d_45 (MaxPoolin  (None, 1, 1, 64)         0         
 g2D)                                                            
                                                                 
 flatten_24 (Flatten)        (None, 64)                0         
                                                                 
 dense_50 (Dense)            (None, 256)               16640     
                                                                 
 dense_51 (Dense)            (None, 10)                2570      
                                                                 
=================================================================
Total params: 126,538
Trainable params: 126,538
Non-trainable params: 0
_________________________________________________________________
