…
1563/1563 [==============================] - 41s 26ms/step - loss: 0.6446 - accuracy: 0.7802
Epoch 19/20
1563/1563 [==============================] - 46s 29ms/step - loss: 0.6180 - accuracy: 0.7873
Epoch 20/20
1563/1563 [==============================] - 46s 29ms/step - loss: 0.5982 - accuracy: 0.7952
Validation loss: 0.8772327303886414
Validation accuracy: 0.7049999833106995
Time Elapsed: 942.5456471443176
Model: "sequential_33"
_________________________________________________________________
 Layer (type)                Output Shape              Param #   
=================================================================
 conv2d_59 (Conv2D)          (None, 28, 28, 64)        4864      
                                                                 
 max_pooling2d_50 (MaxPoolin  (None, 14, 14, 64)       0         
 g2D)                                                            
                                                                 
 conv2d_60 (Conv2D)          (None, 10, 10, 64)        102464    
                                                                 
 max_pooling2d_51 (MaxPoolin  (None, 5, 5, 64)         0         
 g2D)                                                            
                                                                 
 flatten_27 (Flatten)        (None, 1600)              0         
                                                                 
 dense_56 (Dense)            (None, 256)               409856    
                                                                 
 dense_57 (Dense)            (None, 10)                2570      
                                                                 
=================================================================
Total params: 519,754
Trainable params: 519,754
Non-trainable params: 0
_________________________________________________________________
