…
1563/1563 [==============================] - 35s 22ms/step - loss: 0.9804 - accuracy: 0.6574
Epoch 19/20
1563/1563 [==============================] - 31s 20ms/step - loss: 0.9659 - accuracy: 0.6666
Epoch 20/20
1563/1563 [==============================] - 30s 19ms/step - loss: 0.9527 - accuracy: 0.6721
Validation loss: 1.0510748624801636
Validation accuracy: 0.6449000239372253
Model: "sequential_6"
_________________________________________________________________
 Layer (type)                Output Shape              Param #   
=================================================================
 conv2d_26 (Conv2D)          (None, 28, 28, 128)       9728      
                                                                 
 max_pooling2d_18 (MaxPoolin  (None, 7, 7, 128)        0         
 g2D)                                                            
                                                                 
 conv2d_27 (Conv2D)          (None, 5, 5, 64)          73792     
                                                                 
 max_pooling2d_19 (MaxPoolin  (None, 2, 2, 64)         0         
 g2D)                                                            
                                                                 
 flatten (Flatten)           (None, 256)               0         
                                                                 
 dense (Dense)               (None, 128)               32896     
                                                                 
 dense_1 (Dense)             (None, 10)                1290      
                                                                 
=================================================================
Total params: 117,706
Trainable params: 117,706
Non-trainable params: 0
_________________________________________________________________
