…
2024-01-23 03:20:47.347639: W tensorflow/c/c_api.cc:300] Operation '{name:'loss_18/mul' id:10345 op device:{requested: '', assigned: ''} def:{{{node loss_18/mul}} = Mul[T=DT_FLOAT, _has_manual_control_dependencies=true](loss_18/mul/x, loss_18/dense_118_loss/value)}}' was changed by setting attribute after it was run by a session. This mutation will have no effect, and will trigger an error in the future. Either don't modify nodes after running them or create a new session.
Validation loss: 2.7511466093063355
Validation accuracy: 0.7566
Time Elapsed: 2996.5103528499603
Model: "sequential_63"
_________________________________________________________________
 Layer (type)                Output Shape              Param #   
=================================================================
 conv2d_126 (Conv2D)         (None, 30, 30, 64)        1792      
                                                                 
 conv2d_127 (Conv2D)         (None, 28, 28, 64)        36928     
                                                                 
 max_pooling2d_109 (MaxPooli  (None, 14, 14, 64)       0         
 ng2D)                                                           
                                                                 
 conv2d_128 (Conv2D)         (None, 12, 12, 128)       73856     
                                                                 
 conv2d_129 (Conv2D)         (None, 10, 10, 128)       147584    
                                                                 
 max_pooling2d_110 (MaxPooli  (None, 5, 5, 128)        0         
 ng2D)                                                           
                                                                 
 flatten_56 (Flatten)        (None, 3200)              0         
                                                                 
 dense_116 (Dense)           (None, 512)               1638912   
                                                                 
 dense_117 (Dense)           (None, 256)               131328    
                                                                 
 dense_118 (Dense)           (None, 10)                2570      
                                                                 
=================================================================
Total params: 2,032,970
Trainable params: 2,032,970
Non-trainable params: 0
_________________________________________________________________
