…
2024-01-23 08:15:59.174674: W tensorflow/c/c_api.cc:300] Operation '{name:'loss_20/mul' id:12228 op device:{requested: '', assigned: ''} def:{{{node loss_20/mul}} = Mul[T=DT_FLOAT, _has_manual_control_dependencies=true](loss_20/mul/x, loss_20/dense_118_loss/value)}}' was changed by setting attribute after it was run by a session. This mutation will have no effect, and will trigger an error in the future. Either don't modify nodes after running them or create a new session.
Validation loss: 4.253796593284607
Validation accuracy: 0.7589
Time Elapsed: 3087.0769917964935
Model: "sequential_63"
_________________________________________________________________
 Layer (type)                Output Shape              Param #   
=================================================================
 conv2d_126 (Conv2D)         (None, 30, 30, 64)        1792      
                                                                 
 conv2d_127 (Conv2D)         (None, 28, 28, 64)        36928     
                                                                 
 max_pooling2d_109 (MaxPooli  (None, 14, 14, 64)       0         
 ng2D)                                                           
                                                                 
 conv2d_128 (Conv2D)         (None, 12, 12, 128)       73856     
                                                                 
 conv2d_129 (Conv2D)         (None, 10, 10, 128)       147584    
                                                                 
 max_pooling2d_110 (MaxPooli  (None, 5, 5, 128)        0         
 ng2D)                                                           
                                                                 
 flatten_56 (Flatten)        (None, 3200)              0         
                                                                 
 dense_116 (Dense)           (None, 512)               1638912   
                                                                 
 dense_117 (Dense)           (None, 256)               131328    
                                                                 
 dense_118 (Dense)           (None, 10)                2570      
                                                                 
=================================================================
Total params: 2,032,970
Trainable params: 2,032,970
Non-trainable params: 0
_________________________________________________________________

-----
Epoch 1: Training Accuracy = 0.2587, Validation Accuracy = 0.3687
Epoch 2: Training Accuracy = 0.3933, Validation Accuracy = 0.4453
…
