…
1563/1563 [==============================] - 32s 21ms/step - loss: 0.7086 - accuracy: 0.7539
Epoch 19/20
1563/1563 [==============================] - 32s 21ms/step - loss: 0.6850 - accuracy: 0.7623
Epoch 20/20
1563/1563 [==============================] - 32s 21ms/step - loss: 0.6626 - accuracy: 0.7681
Validation loss: 0.9245101809501648
Validation accuracy: 0.6869999766349792
Model: "sequential_2"
_________________________________________________________________
 Layer (type)                Output Shape              Param #   
=================================================================
 conv2d_10 (Conv2D)          (None, 30, 30, 32)        896       
                                                                 
 max_pooling2d_6 (MaxPooling  (None, 15, 15, 32)       0         
 2D)                                                             
                                                                 
 conv2d_11 (Conv2D)          (None, 13, 13, 64)        18496     
                                                                 
 conv2d_12 (Conv2D)          (None, 11, 11, 64)        36928     
                                                                 
 max_pooling2d_7 (MaxPooling  (None, 5, 5, 64)         0         
 2D)                                                             
                                                                 
 conv2d_13 (Conv2D)          (None, 3, 3, 128)         73856     
                                                                 
 conv2d_14 (Conv2D)          (None, 1, 1, 128)         147584    
                                                                 
 flatten (Flatten)           (None, 128)               0         
                                                                 
 dense (Dense)               (None, 128)               16512     
                                                                 
 dense_1 (Dense)             (None, 10)                1290      
                                                                 
=================================================================
Total params: 295,562
Trainable params: 295,562
Non-trainable params: 0
_________________________________________________________________
